app/src/main/ml/converted_model.tflite (tflite, 37188 bytes, 5 tensors)

arith.constant f4 [1, 64]
0	0xbe206589	-0.15663733
1	0xbe6e53e6	-0.23274192
2	0xbde7df20	-0.113218546
3	0xbe1dfa33	-0.15427475
4	0xbe4e0b78	-0.20121562
5	0x3e46f383	0.1942883
6	0xbd8c88df	-0.068620436
7	0xbe9234d5	-0.28555933
8	0xbe7c70c7	-0.24652396
9	0xbe2fae37	-0.17156301
10	0xbdb8135d	-0.08988068
11	0xbe1819eb	-0.14853637
12	0xbd9ad656	-0.075604126
13	0x3e5b73e2	0.21430925
14	0x3e23297f	0.15933798
15	0xbe67287d	-0.22574039
16	0xbd8465f2	-0.06464757
17	0x3e895bb6	0.26827782
18	0xbe518fe4	-0.20465046
19	0xbe6b6170	-0.22986388
20	0x3e0c634c	0.13709754
21	0xbe8ed893	-0.27899608
22	0xbe8abe18	-0.27098155
23	0xbe726704	-0.2367211
24	0xbe87aa00	-0.26496887
25	0xbe5bdf7d	-0.21471973
26	0x3e10e2e0	0.14149046
27	0xbe007822	-0.12545827
28	0xbcfe8a3c	-0.031071775
29	0x3e4b0a60	0.19828176
30	0x3e736c94	0.23771888
31	0x3d4e6072	0.050384946
32	0x3e8525b2	0.26005322
33	0xbd515bba	-0.051112868
34	0xbe3b52ed	-0.18293352
35	0xbe8f591e	-0.2799768
36	0x3db63e74	0.08898631
37	0x3ddcc81d	0.10780356
38	0xbe7ea82f	-0.24868844
39	0x3e551348	0.20808136
40	0xbe09274f	-0.13393901
41	0xbe34da13	-0.17661314
42	0xbe110d7e	-0.14165303
43	0xbe23d730	-0.16000056
44	0xbd6de9d9	-0.058084343
45	0x3d3573a3	0.044299733
46	0xbe6b2e66	-0.22966918
47	0x3db4eb22	0.088339105
48	0x3e8db507	0.27677175
49	0xbe644476	-0.22291741
50	0x3c878a63	0.01654548
51	0x3e16baa7	0.1471964
52	0xbdcfd122	-0.10147311
53	0xbd61fa54	-0.055170372
54	0x3e67c3af	0.22633241
55	0x3e86f967	0.26362154
56	0x3e80d4a8	0.25162244
57	0x3d8feb38	0.07027286
58	0xbe18f233	-0.14936142
59	0xbe6c1c13	-0.23057584
60	0xbdc19b53	-0.09453454
61	0xbd8fe51a	-0.070261195
62	0x3dff8fd5	0.12478606
63	0xbe8baa4a	-0.27278358

arith.constant1 f4 [64, 128]
0	0x3df1d382	0.1180792
1	0x3bd565a0	0.006512359
2	0xbe13382f	-0.14376901
3	0x3d02e6b8	0.03195831
4	0x3d66ea70	0.05637592
5	0x3dd1f056	0.102509186
6	0xbc46d920	-0.012136728
7	0xbd257724	-0.040396824
8	0xbe1d7283	-0.15375714
9	0xbd2c44e0	-0.04205787
10	0xbe0a8187	-0.13525973
11	0xbdc94abd	-0.09828708
12	0xbe0d31c6	-0.13788518
13	0x3dedd632	0.1161312
14	0xbe2074b7	-0.15669523
15	0xbe274aac	-0.16337079
16	0x3d5fc248	0.05462864
17	0x3e1a9a63	0.15097956
18	0xbd9fde8b	-0.078061186
19	0x3dbd953e	0.09256981
20	0x3cd90878	0.026493296
21	0xbe15ac7e	-0.14616582
22	0xbe341ab0	-0.17588305
23	0xbd2a2bb4	-0.041545585
24	0xbe3330b6	-0.1749905
25	0x3da5d732	0.08097686
26	0x3d4961c8	0.049165517
27	0x3d009914	0.031395987
28	0xbc24f7f0	-0.0100688785
29	0x3b421b40	0.0029618293
30	0xbdfc3f94	-0.12316814
31	0x3d2914c0	0.041279554
32	0x3e2e4f4d	0.17022438
33	0x3e0e3abd	0.13889594
34	0x3dfa5746	0.12223677
35	0xbe2f8437	-0.1714028
36	0xbddc1c4d	-0.107475854
37	0xbe2ad44d	-0.16682549
38	0xbe116b04	-0.1420098
39	0xbdf84b22	-0.121237054
40	0xbdcee038	-0.1010136
41	0xbd18b7f0	-0.03728479
42	0x3df315ae	0.118693694
43	0x3d755db4	0.059903815
44	0xbdd6ec71	-0.10494316
45	0x3d0f8a38	0.035043925
46	0x3e29a2cf	0.16566013
47	0xbe1c5cf0	-0.15269828
48	0xbdeab83c	-0.11460921
49	0x3dd9dd8e	0.10637961
50	0x3db4bd12	0.08825125
51	0xbe1a990e	-0.15097448
52	0xbdc4e780	-0.096144676
53	0xbdceceb2	-0.10098018
54	0xbdd59338	-0.104284704
55	0x3ae16680	0.0017196685
56	0x3e11f5b9	0.14253892
57	0x3dbaefaa	0.091277435
58	0xbd3718bc	-0.044701323
59	0x3cafb0c0	0.021446586
60	0x3e1084bb	0.14113133
61	0x3e2d7761	0.1694007
62	0x3e2012d3	0.15632181
63	0x3d9a4d52	0.07534279
64	0xbdbad4fd	-0.091226555
65	0x3d26142c	0.04054658
66	0x3e200af3	0.15629177
67	0x3cafeac0	0.021474242
68	0xbe1f6746	-0.1556674
69	0x3d886c44	0.06661275
70	0x3dc7e9fa	0.09761424
71	0xbd8426ba	-0.06452699
72	0x3df44722	0.1192763
73	0x3cfc3fe8	0.030792192
74	0x3e1d5049	0.15362658
75	0x3d96be76	0.07360546
76	0x3df87d02	0.12133218
77	0xbd100ae8	-0.03516665
78	0x3d3163a4	0.043307915
79	0x3defe44e	0.117134675
80	0x3cb33968	0.02187796
81	0x3d085a74	0.033289388
82	0xbe2f1629	-0.17098297
83	0xbe1be285	-0.15223129
84	0xbc3449c0	-0.0110039115
85	0x3d12e7e0	0.035865664
86	0xbc8b9d98	-0.01704292
87	0x3ce01c88	0.027357355
88	0xbe28d9b6	-0.164893
89	0x3d1ddf14	0.038542822
90	0x3d31e338	0.043429583
91	0xbd9feccc	-0.07808837
92	0x3df5b1a2	0.119967714
93	0x3d092ad4	0.03348811
94	0x3d4db194	0.05021818
95	0x3dbf53a6	0.093421265
96	0xbdff0978	-0.12452978
97	0xbd61db10	-0.055140555
98	0xbe17870c	-0.1479761
99	0xbe127212	-0.14301327
100	0xbd9426b0	-0.072339416
101	0xbdae53bd	-0.085120656
102	0x3d873f66	0.06603889
103	0xbde2afdb	-0.11068698
104	0x3cc4bd58	0.024016067
105	0x3cfbede0	0.030753076
106	0xbdf7d9a4	-0.121020585
107	0x3e1a4565	0.15065534
108	0x3d8e1204	0.0693703
109	0xbdcc28fb	-0.09968754
110	0x3c2e9fa0	0.010658175
111	0xbe1dbd30	-0.154042
112	0x3ddbe2ea	0.1073664
113	0xbca81318	-0.020516917
114	0x3e3111cd	0.17291947
115	0x3d94d6c2	0.07267524
116	0x3dab0132	0.08349837
117	0x3dd92a2a	0.10603745
118	0x3de8139e	0.11331867
119	0x3c8feb18	0.017568156
120	0xbd3ba8e0	-0.04581535
121	0xbd3d0284	-0.046144977
122	0x3e151a5d	0.14560838
123	0xbe088124	-0.13330513
124	0x3e279aad	0.16367598
125	0x3d802534	0.06257096
126	0x3e2693ff	0.16267394
127	0xbda23199	-0.07919616
128	0xbe2583c8	-0.16163552
129	0xbdc510a5	-0.09622315
130	0x3d94e84e	0.07270871
131	0xbd699fc0	-0.057037115
132	0xbe160ccd	-0.1465332
133	0xbd3d3278	-0.04619071
134	0xbd59901a	-0.05311594
135	0x3e1518c9	0.14560236
136	0x3dbf24ea	0.09333213
137	0xbe0be48c	-0.13661402
138	0x3e34d78b	0.17660348
139	0x3b3fb840	0.0029254109
140	0xbdd8c0fd	-0.105836846
141	0x3bf496a0	0.007464245
142	0xbe2dc035	-0.16967852
143	0xbe1f705e	-0.15570208
144	0xbe066467	-0.13124238
145	0x3dca5d56	0.09881084
146	0x3d165f08	0.036711723
147	0xbd4a2c8c	-0.04935889
148	0x3e29d2c5	0.16584308
149	0xbdb43f4a	-0.08801134
150	0x3e21e741	0.15810873
151	0x3cadb3d0	0.021203905
152	0x3daaf12e	0.083467826
153	0x3e07c14d	0.13257332
154	0x3be73a00	0.0070564747
155	0x3db182ca	0.08667524
156	0x3ddd4d5e	0.10805772
157	0xbe015f7a	-0.12634078
158	0x3dae6ea2	0.08517195
159	0xbd43b148	-0.04777649
160	0x3db3e982	0.087847725
161	0x3e290a8d	0.16507931
162	0xbe31fb41	-0.17381002
163	0xbd098f34	-0.033583835
164	0xbd5af1e0	-0.053453326
165	0x3beb6ea0	0.0071848184
166	0x3b8a3860	0.004218146
167	0xbb86f160	-0.0041181296
168	0x3dd9046e	0.10596548
169	0xbe11b38d	-0.1422865
170	0xbd7fa43c	-0.062412485
171	0xbdad627c	-0.0846605
172	0xbde064f5	-0.10956756
173	0xbc7da840	-0.015482008
174	0x3af25980	0.0018489808
175	0x3ddcd6b6	0.1078314
176	0xbdd44889	-0.103653975
177	0xbdb20a9a	-0.08693428
178	0xbdb97ac6	-0.0905662
179	0xbdb712a4	-0.08939102
180	0xbc494270	-0.012283906
181	0x3dfb3226	0.122654244
182	0x3cc22a58	0.023701832
183	0x3e162c1b	0.14665262
184	0x3d86143e	0.0654683
185	0xbde001b2	-0.10937823
186	0x3e30a82d	0.17251654
187	0x3e274279	0.16333951
188	0x3e1c0ef5	0.1524008
189	0x3de676be	0.11253117
190	0xbc4e2660	-0.0125823915
191	0xbdd594ca	-0.1042877
192	0x3e267d3d	0.16258712
193	0x3d482050	0.04885894
194	0x3e016203	0.12635045
195	0x3dfeb0f2	0.124360934
196	0xbe19129c	-0.14948505
197	0x3e06810d	0.13135166
198	0xbe19ba56	-0.15012488
199	0xbd79dd5e	-0.061002128
200	0xbe08115f	-0.13287877
201	0x3dccf30a	0.100072935
202	0x3df40232	0.11914481
203	0x3c48b040	0.0122490525
204	0x3e21d4a9	0.1580378
205	0x3d2550ec	0.040360376
206	0x3d497120	0.04918015
207	0x3d2462e4	0.040133372
208	0x3df53c1a	0.11974354
209	0xbe05e68c	-0.13076228
210	0x3e121d11	0.142689
211	0xbce10460	-0.027467906
212	0xbe3444a1	-0.17604305
213	0x3bd3fa40	0.006469041
214	0xbd459590	-0.048238337
215	0xbe262c29	-0.16227783
216	0xbe205dd3	-0.15660791
217	0xbb8fd040	-0.004388839
218	0xbcb6efd8	-0.022331163
219	0x3dff62be	0.124700055
220	0x3e253d95	0.16136773
221	0xbdf7ecfa	-0.121057466
222	0xbde02a60	-0.109455824
223	0xbda786e9	-0.08180029
224	0xbe165676	-0.1468142
225	0xbe02cda6	-0.12773761
226	0x3bd6d560	0.006556198
227	0xbe03a35a	-0.12855282
228	0xbc3635e0	-0.011121243
229	0xbdb1f77c	-0.08689782
230	0xbd82fe0d	-0.063961126
231	0x3d999982	0.074999824
232	0xbd70fe0c	-0.058836028
233	0xbb7ebe40	-0.0038870722
234	0x3e329f33	0.17443542
235	0x3d7a13dc	0.061054096
236	0x3bd96100	0.0066338778
237	0xbd819951	-0.06328071
238	0x3e0d7f37	0.1381806
239	0x3da46b42	0.0802827
240	0xbde9daf4	-0.11418715
241	0x3c969620	0.018382132
242	0x3d654304	0.055972114
243	0x3daefd22	0.08544375
244	0xbe230a23	-0.15921836
245	0xbcece680	-0.028918505
246	0x3e0207a1	0.12698223
247	0xbdcfedea	-0.101528004
248	0xbe2cfba2	-0.16892865
249	0x3e2addf5	0.16686232
250	0x3bfddfa0	0.0077476054
251	0xbe25c9eb	-0.16190307
252	0xbde09a25	-0.10966901
253	0x3e1bda07	0.1521989
254	0xbe240a44	-0.16019541
255	0x3e2b098d	0.16702862

arith.constant3 f4 [64]
0	0x00000000	0.0
1	0x00000000	0.0
2	0xbc21c16d	-0.009872776
3	0xbc03739f	-0.008023172
4	0x00000000	0.0
5	0x3c1b4787	0.009477503
6	0xbc1966df	-0.009362905
7	0x00000000	0.0
8	0x00000000	0.0
9	0xbbc4b5d5	-0.0060031214
10	0xbc22a42f	-0.00992684
11	0x00000000	0.0
12	0x00000000	0.0
13	0x3c1ba2b6	0.0094992425
14	0xbba8e726	-0.005154508
15	0xbc20b519	-0.009808802
16	0x00000000	0.0
17	0x00000000	0.0
18	0xbc1f2c6c	-0.009715181
19	0xbbc4b664	-0.006003188
20	0x3c1a2f37	0.009410671
21	0xbc37b958	-0.011213623
22	0xbbc4b193	-0.006002614
23	0x00000000	0.0
24	0xbc45619e	-0.0120471995
25	0x00000000	0.0
26	0x3c1a7e3d	0.009429512
27	0xbc22211d	-0.00989559
28	0xbc2a30cc	-0.010387611
29	0xbba4b382	-0.005026282
30	0x3c1bd00c	0.009510051
31	0x3c141b15	0.00903966
32	0x3c1c951f	0.009557038
33	0xbc483cb6	-0.012221506
34	0xbc203ae3	-0.009779665
35	0x00000000	0.0
36	0x00000000	0.0
37	0x3c19b63f	0.00938183
38	0x00000000	0.0
39	0x00000000	0.0
40	0xbc1f6bad	-0.009730262
41	0xbc214477	-0.009842983
42	0xbc212021	-0.00983432
43	0x00000000	0.0
44	0xbc22c8d7	-0.009935579
45	0xbba8a717	-0.005146872
46	0xbc1f8c86	-0.009738093
47	0x3c16f0fe	0.00921273
48	0x3c1c4fea	0.009540537
49	0x00000000	0.0
50	0x3bfabf1b	0.007652176
51	0x3c1ab513	0.0094425855
52	0x00000000	0.0
53	0xbc3d4fc6	-0.011554664
54	0x3c1c7b83	0.009550932
55	0x3c1c97f1	0.00955771
56	0x00000000	0.0
57	0x3c040dec	0.00805996
58	0xbc216158	-0.009849869
59	0xbc200ed5	-0.009769161
60	0xbbc484a1	-0.005997256
61	0x00000000	0.0
62	0x3c18e1c3	0.00933117
63	0xbc41faea	-0.011839608

arith.constant4 f4 [128]
0	0xbc773028	-0.015087165
1	0x3be88807	0.007096294
2	0xbc50c92b	-0.012743275
3	0xbc4605cc	-0.012086343
4	0xbb3e9804	-0.0029082308
5	0xbc4f0656	-0.012635788
6	0xbc03576a	-0.008016447
7	0x00000000	0.0
8	0x00000000	0.0
9	0xbbb1e4ac	-0.005428871
10	0x3bd5b8df	0.0065222825
11	0xbc1acdc4	-0.009448472
12	0xbc43d3b5	-0.01195233
13	0x3bf6c553	0.007530847
14	0x3c234cf2	0.009967076
15	0x3c1011af	0.008793279
16	0xbc2f824d	-0.0107122185
17	0x3c2152a0	0.0098463595
18	0x3a7f9995	0.00097503635
19	0xbc31d34b	-0.010853599
20	0xbc3ecb77	-0.0116451895
21	0x00000000	0.0
22	0x00000000	0.0
23	0x3ad3b626	0.0016152307
24	0x00000000	0.0
25	0x3c05f013	0.008174914
26	0x3bfd2ee2	0.007726536
27	0xbc5e01b4	-0.013550211
28	0xbc344600	-0.011003017
29	0x00000000	0.0
30	0xbc3d9f6d	-0.011573655
31	0x3beb9322	0.0071891705
32	0x00000000	0.0
33	0x00000000	0.0
34	0x00000000	0.0
35	0x00000000	0.0
36	0xbb4f8d99	-0.0031670092
37	0xbc24ad23	-0.010051045
38	0xbc423e60	-0.011855692
39	0x3c058f48	0.008151837
40	0x00000000	0.0
41	0x00000000	0.0
42	0xbc68c0ca	-0.014206121
43	0x00000000	0.0
44	0x3be71670	0.0070522353
45	0xbc5d1f65	-0.013496255
46	0xbc0621e4	-0.008186791
47	0xbc038895	-0.008028169
48	0x3bca2eaa	0.0061701136
49	0xbbf3ab7c	-0.007436214
50	0x3ced9c11	0.029005082
51	0x3ad0d7d6	0.0015933465
52	0x3c1197c3	0.0088862805
53	0x3c04838d	0.008088005
54	0xbc1d4ae8	-0.009600379
55	0x00000000	0.0
56	0xbc60446b	-0.013688187
57	0x3c19e7fe	0.00939369
58	0xbc3275d6	-0.010892352
59	0x00000000	0.0
60	0x3bdd66e5	0.0067566507
61	0xbc40c707	-0.011766202
62	0x3c186a76	0.009302726
63	0x00000000	0.0
64	0x00000000	0.0
65	0xbc5883e0	-0.013215035
66	0x00000000	0.0
67	0x3a84b26d	0.0010123976
68	0xbbff90bb	-0.0077992356
69	0xbab24cf7	-0.001360326
70	0xbc41c01c	-0.011825588
71	0x3c852c4c	0.016256474
72	0x3b8fa955	0.0043841996
73	0x00000000	0.0
74	0x00000000	0.0
75	0xbc20b88a	-0.009809623
76	0x00000000	0.0
77	0x00000000	0.0
78	0x38041118	3.1487172e-05
79	0xbc50d863	-0.012746903
80	0x00000000	0.0
81	0x3c1e29db	0.009653534
82	0xbc215402	-0.009846689
83	0x3bebeb28	0.0071996637
84	0x3c0aa0e6	0.008461213
85	0x00000000	0.0
86	0x00000000	0.0
87	0x00000000	0.0
88	0xbc0ea1e2	-0.008705588
89	0xbc52a99b	-0.01285782
90	0x00000000	0.0
91	0x00000000	0.0
92	0x3a65bf7c	0.000876419
93	0xbc1ed648	-0.009694643
94	0x00000000	0.0
95	0xbc309687	-0.010778076
96	0x3c021373	0.007939207
97	0x3b9335d8	0.0044925027
98	0x3bac0b5c	0.0052503776
99	0x00000000	0.0
100	0x3c16d51a	0.009206081
101	0xbb00d21b	-0.0019656483
102	0xbbe9d1dd	-0.0071356134
103	0x00000000	0.0
104	0x00000000	0.0
105	0x00000000	0.0
106	0x3be08695	0.006851981
107	0x3c1d1851	0.009588317
108	0x3a4fa11e	0.00079204317
109	0xbaf3cbeb	-0.0018600201
110	0x00000000	0.0
111	0x3c299d14	0.010352392
112	0xbb816739	-0.0039490727
113	0x3c1f122f	0.009708925
114	0x00000000	0.0
115	0x3bd6b1f6	0.0065519763
116	0xbc3a3b1a	-0.01136663
117	0xbc29a7e3	-0.010354969
118	0xbc4c5e6f	-0.012473687
119	0x00000000	0.0
120	0x00000000	0.0
121	0x00000000	0.0
122	0x00000000	0.0
123	0x3a886560	0.0010406189
124	0xbc2315bc	-0.009953912
125	0x00000000	0.0
126	0xbc30de9d	-0.010795263
127	0x00000000	0.0

sequential_1_1/dense_3_1/MatMul f4 [128, 3]
0	0xbe425b01	-0.18980028
1	0x3e016827	0.12637387
2	0x3cbf7e37	0.023375614
3	0xbd5d8c26	-0.054088734
4	0x3e033419	0.12812842
5	0x3dd6aa7f	0.10481738
6	0xbdefbbfc	-0.11705777
7	0x3d9ddafd	0.07707784
8	0xbc41b278	-0.011822335
9	0xbe1ec010	-0.15502954
10	0x3e226909	0.1586038
11	0x3e168fde	0.14703318
12	0xbd15a8a7	-0.036537793
13	0x3dd5c3a1	0.10437704
14	0xbe27304c	-0.16327018
15	0xbd6282a0	-0.055300355
16	0x3c8f3fb9	0.01748644
17	0xbbcfff9c	-0.0063476097
18	0xbb0f4dd1	-0.002186645
19	0x3e01cc97	0.12675701
20	0xbd3dbaa9	-0.04632059
21	0x3e07b6ef	0.13253377
22	0xbe380635	-0.17971118
23	0xbe15fb11	-0.14646555
24	0xbcfefc10	-0.031126052
25	0xbadb6e00	-0.0016741157
26	0xbdebed40	-0.11519861
27	0xbd8a29b2	-0.06746234
28	0xbd3eb91e	-0.04656326
29	0x3d4d1fc8	0.050079137
30	0x3e26f7d3	0.16305475
31	0x3e4b1c7f	0.19835089
32	0x3e213e79	0.15746488
33	0xbdf2d643	-0.118572734
34	0x3e47532c	0.19465321
35	0xbe1963d4	-0.14979488
36	0xbe01da91	-0.12681033
37	0x3e086a27	0.13321744
38	0xbab01c3c	-0.0013436149
39	0xbd9f4219	-0.07776279
40	0x3df295d2	0.11844982
41	0x3d0c99fa	0.03432653
42	0xbd9e42f1	-0.07727612
43	0x3cc09cfc	0.023512356
44	0x3e1e3f50	0.1545384
45	0x3e4deb65	0.20109327
46	0x3dfe0d50	0.12404883
47	0x3e34d8b8	0.17660797
48	0xbe4c6606	-0.19960794
49	0x3e47d596	0.1951507
50	0xbe17306d	-0.14764567
51	0x3e313972	0.1730707
52	0xbd5d9350	-0.054095566
53	0x3e261e7d	0.16222568
54	0xbe27caaf	-0.16385911
55	0x3d15596a	0.036462225
56	0xbd88a479	-0.06671996
57	0xbe0715f9	-0.13191976
58	0x3e13225e	0.14368579
59	0xbd5d084c	-0.05396299
60	0x3e29aa57	0.16568886
61	0x3e2a43ec	0.16627473
62	0x3e16db70	0.14732146
63	0xbe4d63a7	-0.20057546
64	0xbde78f62	-0.11306645
65	0xbd1a0ee4	-0.037611857
66	0xbdf4a269	-0.1194504
67	0xbd681830	-0.056663692
68	0xbe11253e	-0.14174363
69	0xbd21ae2a	-0.039472736
70	0x3e2680a3	0.16260009
71	0x3c783ad4	0.0151507445
72	0xbdeede5d	-0.11663506
73	0xbdd7c0bf	-0.1053481
74	0x3bbe9b00	0.0058168173
75	0x3e16f485	0.14741714
76	0x3dc60ffe	0.09671019
77	0x3d61fc18	0.055172056
78	0xbdb29359	-0.087195106
79	0x3db3611e	0.08758758
80	0xbddd2ef1	-0.10799969
81	0x3e4964a8	0.19667304
82	0x3d17cd98	0.037061304
83	0x3e4f72a7	0.2025858
84	0xbc1e7495	-0.00967135
85	0x3e20d908	0.15707791
86	0x3e331cf2	0.1749151
87	0xbe451838	-0.1924752
88	0xbe2ce6a2	-0.16884854
89	0x3cb62688	0.02223517
90	0x3e1e0bfd	0.1543426
91	0x3e34de76	0.17662987
92	0x3c545f8f	0.012962236
93	0xbd9cf365	-0.07663611
94	0x3d5ae3fc	0.05344008
95	0x3d699f7c	0.05703686
96	0xbd849058	-0.06472844
97	0xbc0691e0	-0.00821349
98	0xbd8e44aa	-0.069466904
99	0xbdfe2f82	-0.12411405
100	0xbc417780	-0.011808276
101	0xbd80d15c	-0.06289932
102	0x3e1c235d	0.15247865
103	0xbe3b2fc7	-0.18279944
104	0x3e1c2021	0.15246631
105	0x3e07c90f	0.13260292
106	0xbda28ada	-0.0793664
107	0x3d69ea4c	0.05710821
108	0x3b3151b0	0.0027056746
109	0xbe37bacd	-0.17942353
110	0x3e3d6f8a	0.1849958
111	0x3e3fe91d	0.1874127
112	0x3d9eba9b	0.07750436
113	0x3d6bbcbd	0.05755304
114	0x3e492a04	0.19644934
115	0x3cfd0271	0.030884953
116	0x3cc0ebbb	0.023549905
117	0xbdc87982	-0.09788801
118	0x3e37df94	0.17956382
119	0x3dc5e102	0.096620575
120	0xbe241d68	-0.16026843
121	0xbcbc3dd0	-0.022978693
122	0xbdb1b12a	-0.086763695
123	0x3d7417a4	0.059592858
124	0xbcd29c48	-0.025709286
125	0xbd5e0fe0	-0.05421436
126	0x3dde3559	0.10850019
127	0x3e069061	0.13141014
128	0x3b635999	0.0034690856
129	0x3e228915	0.15872605
130	0xbd8ae09a	-0.067811206
131	0x3c877430	0.016534895
132	0x3dbcebb1	0.09224642
133	0x3dbc4ccc	0.09194335
134	0x3dfcf96c	0.12352261
135	0x3db4718e	0.08810721
136	0x3defcf2b	0.11709436
137	0x3d96373d	0.073347546
138	0x3d832c04	0.0640488
139	0x3e36be75	0.17846091
140	0x3e01fa26	0.1269308
141	0xbe0ce4ab	-0.13759105
142	0x3e0b299e	0.13590094
143	0xbb5f8db5	-0.0034111564
144	0xbe15f841	-0.14645483
145	0x3e1424ae	0.14467117
146	0x3db0868f	0.08619415
147	0xbdb52dc7	-0.08846622
148	0xbe378a03	-0.17923741
149	0x3e391b1e	0.1807675
150	0x3e60fb52	0.21970871
151	0x3daeef25	0.08541707
152	0xbe2ebe01	-0.17064668
153	0xbe0c013c	-0.13672346
154	0xbe225bc3	-0.15855317
155	0x3e2db0aa	0.16961923
156	0xbdd58cf1	-0.10427273
157	0x3e43ff39	0.19140328
158	0xbc75ce8a	-0.015002856
159	0xbd8db2a1	-0.069188364
160	0x3de4fd99	0.111811824
161	0xbdb960d0	-0.09051669
162	0x3da5a68b	0.08088406
163	0x3e0b3ebb	0.13598149
164	0xbdfc2e90	-0.123135686
165	0x3e370e53	0.17876558
166	0xbe2e1867	-0.17001496
167	0x3db796de	0.089643225
168	0x3d6333e5	0.055469412
169	0x3da0d24d	0.07852612
170	0xbe307404	-0.17231756
171	0x3ddeff09	0.10888488
172	0xbc4d62fb	-0.012535806
173	0x3e59a8b5	0.21255763
174	0xbdec2272	-0.115300074
175	0x3e2cc1ae	0.16870758
176	0xbe5aea99	-0.21378554
177	0x3e517971	0.20456482
178	0xbe1e6290	-0.15467286
179	0xbe231092	-0.1592429
180	0xbdbb8e5d	-0.09158013
181	0x3e1b2aad	0.15152998
182	0x3e20c1a8	0.15698874
183	0xbdadbbdf	-0.08483099
184	0x3e02a60b	0.12758653
185	0xbdc1ecd6	-0.09469001
186	0x3de2e47a	0.11078735
187	0x3dbbd99e	0.091723666
188	0x3d575856	0.052574478
189	0xbdf59b85	-0.119925536
190	0xbdf4c028	-0.119507134
191	0xbe1b12c4	-0.15143877
192	0x3dbcc22a	0.09216721
193	0xbcba02a0	-0.02270633
194	0xbe1726df	-0.14760922
195	0xbe67fbc8	-0.2265464
196	0x3d467f72	0.048461385
197	0x3e365456	0.17805609
198	0xbe01f6ba	-0.12691775
199	0xbe23954c	-0.15974921
200	0xbcf92a88	-0.030415788
201	0xbd5d2e68	-0.053999335
202	0xbddb0648	-0.106945574
203	0x3e226a72	0.15860918
204	0x3e0699f5	0.13144667
205	0x3d0dcde0	0.034620166
206	0x3e1745e5	0.14772756
207	0x3e1d3232	0.15351179
208	0x3d8920aa	0.06695683
209	0x3e0fa7a6	0.14028797
210	0xbdd2c0e8	-0.102907
211	0x3e0e9fdc	0.13928169
212	0xbd9c2cee	-0.07625757
213	0x3e129986	0.14316377
214	0x3cc6e3ad	0.024278486
215	0xbd087f83	-0.03332473
216	0x3e309a0a	0.17246261
217	0x3e336318	0.1751827
218	0x3e367e68	0.17821658
219	0x3e109d69	0.14122547
220	0x3cbdc6c0	0.02316606
221	0xbe275cd9	-0.16344012
222	0x3d952872	0.07283105
223	0xbd237148	-0.039902955
224	0xbdaeff52	-0.08544792
225	0xbce1123c	-0.027474515
226	0x3d3c6684	0.045996204
227	0xbda0b93c	-0.07847831
228	0x3dd841a2	0.105593935
229	0xbe33aa10	-0.17545342
230	0xbcc66728	-0.02421911
231	0xbdb2de04	-0.08733752
232	0xbcc6e178	-0.024277434
233	0xbdd5a4d1	-0.10431827
234	0xbb91d753	-0.0044507175
235	0xbc2fd5f0	-0.010732159
236	0x3e14b8a4	0.1452356
237	0x3dbc4bae	0.09194122
238	0x3daeaa87	0.08528619
239	0x3d6c7247	0.05772617
240	0x3e3fb0eb	0.18719833
241	0xbde3f7be	-0.111312374
242	0x3cf6c328	0.030122355
243	0xbc0cdf9c	-0.0085982345
244	0x3e38403e	0.17993256
245	0xbc80545f	-0.015665231
246	0xbe1fd55e	-0.15608737
247	0x3e3167fa	0.1732482
248	0x3dee1bec	0.116264194
249	0xbd0d2438	-0.03445837
250	0x3e540d78	0.20708263
251	0xbe28cccc	-0.16484374
252	0x3dfa3e7e	0.12218951
253	0x3d6a0af6	0.05713936
254	0x3dd7f10b	0.10544022
255	0x3d3fb34c	0.04680185
